Namespace(batch_size=64, cluster_init='kshape', dataset='Computers', epochs=100, eval_epochs=1, kernel_size=10, n_clusters=None, n_filters=50, n_units=[50, 1, 10], patience=5, pool_size=10, pretrain_epochs=20, save_dir='results/tmp', save_epochs=10, strides=1, tol=0.001)
-------------cModel Preview-------------
Model: "ClusteringModel"
_________________________________________________________________
Layer (type)                 Output Shape              Param #   
=================================================================
input_seq (InputLayer)       (None, 720, 1)            0         
_________________________________________________________________
conv1d_3 (Conv1D)            (None, 720, 50)           550       
_________________________________________________________________
leaky_re_lu_5 (LeakyReLU)    (None, 720, 50)           0         
_________________________________________________________________
max_pooling1d_3 (MaxPooling1 (None, 72, 50)            0         
_________________________________________________________________
bidirectional_5 (Bidirection (None, 72, 10)            4880      
_________________________________________________________________
leaky_re_lu_6 (LeakyReLU)    (None, 72, 10)            0         
_________________________________________________________________
flatten_1 (Flatten)          (None, 720)               0         
_________________________________________________________________
dense (Dense)                (None, 2)                 1442      
_________________________________________________________________
sm (Softmax)                 (None, 2)                 0         
=================================================================
Total params: 6,872
Trainable params: 6,872
Non-trainable params: 0
_________________________________________________________________
----------Auto-encoder Preview----------
Model: "AE0"
_________________________________________________________________
Layer (type)                 Output Shape              Param #   
=================================================================
input_seq0 (InputLayer)      (None, 720, 1)            0         
_________________________________________________________________
conv1d_1 (Conv1D)            (None, 720, 50)           550       
_________________________________________________________________
leaky_re_lu_1 (LeakyReLU)    (None, 720, 50)           0         
_________________________________________________________________
max_pooling1d_1 (MaxPooling1 (None, 72, 50)            0         
_________________________________________________________________
bidirectional_1 (Bidirection (None, 72, 50)            40400     
_________________________________________________________________
leaky_re_lu_2 (LeakyReLU)    (None, 72, 50)            0         
_________________________________________________________________
bidirectional_2 (Bidirection (None, 72, 1)             416       
_________________________________________________________________
latent (LeakyReLU)           (None, 72, 1)             0         
_________________________________________________________________
reshape (Reshape)            (None, 72, 1, 1)          0         
_________________________________________________________________
upsampling (UpSampling2D)    (None, 720, 1, 1)         0         
_________________________________________________________________
conv2dtranspose (Conv2DTrans (None, 720, 1, 1)         11        
_________________________________________________________________
output_seq (Reshape)         (None, 720, 1)            0         
=================================================================
Total params: 41,377
Trainable params: 41,377
Non-trainable params: 0
_________________________________________________________________
------------Softmax Preview-------------
Model: "softmax_model"
_________________________________________________________________
Layer (type)                 Output Shape              Param #   
=================================================================
softmax_input (InputLayer)   (None, 720)               0         
_________________________________________________________________
dense (Dense)                (None, 2)                 1442      
_________________________________________________________________
sm (Softmax)                 (None, 2)                 0         
=================================================================
Total params: 1,442
Trainable params: 1,442
Non-trainable params: 0
_________________________________________________________________
----------TAE Preview--------------------
Model: "before_softmax"
_________________________________________________________________
Layer (type)                 Output Shape              Param #   
=================================================================
input_seq (InputLayer)       (None, 720, 1)            0         
_________________________________________________________________
conv1d_3 (Conv1D)            (None, 720, 50)           550       
_________________________________________________________________
leaky_re_lu_5 (LeakyReLU)    (None, 720, 50)           0         
_________________________________________________________________
max_pooling1d_3 (MaxPooling1 (None, 72, 50)            0         
_________________________________________________________________
bidirectional_5 (Bidirection (None, 72, 10)            4880      
_________________________________________________________________
leaky_re_lu_6 (LeakyReLU)    (None, 72, 10)            0         
_________________________________________________________________
flatten_1 (Flatten)          (None, 720)               0         
=================================================================
Total params: 5,430
Trainable params: 5,430
Non-trainable params: 0
_________________________________________________________________
-------------Preview end----------------
-------------Begin to Pretain-------------------
0.152 --> 0.146 --> 0.144 --> 0.144 --> 0.143 --> 0.143 --> 0.143 --> 
Begin to pretrain cModel
Epoch 1/20
…
